modelzoo/BSRN/BSRN-S_LSR_x4.pth (torch, 699603 bytes, 210 tensors)

fea_conv.pw.weight f4 [48, 12]
000000 f9 86 15 bd 8b af d2 3c 85 b3 7c be 51 b7 7c be
       -0.036505673 0.025718471 -0.24677856 -0.24679305
000010 0b 18 76 be c6 b0 8b 3d fe 18 24 bd ea 47 cc 3d
       -0.24032609 0.06820826 -0.040062897 0.09974654
000020 8b 9f 0e bd 70 38 2c 3d d1 92 5d be 8f 10 87 bd
       -0.03482012 0.04204601 -0.21638037 -0.06594955
000030 b3 5b c3 bd 96 b5 e9 be 26 e5 ea 3b 60 ae 43 3e
       -0.095389746 -0.45646352 0.00716843 0.19109488
000040 bd c8 1a be e5 47 99 3e 6b d5 7a bc 75 2f c8 be
       -0.15115638 0.29937664 -0.015309672 -0.39098707
000050 1a 8f 6c 3e 61 19 d7 3e 34 3d a6 be b1 32 af 3e
       0.23101464 0.4201155 -0.3246857 0.34218362
000060 a1 f9 27 3d fa 4a 19 3e 19 a3 8e 3e b8 96 38 be
       0.04100955 0.14970008 0.2785881 -0.18026245
000070 2f 2e 80 bd cc dc 64 bd ea a6 cc bc 5e b3 bc 3e
       -0.06258809 -0.05587463 -0.024981935 0.36855596
000080 7d fc 2d be f8 bb 39 bd 71 0a a9 bd bc 9e 81 be
       -0.16990848 -0.045345277 -0.08253945 -0.25316417
000090 b0 cf 30 be 83 22 55 3e 80 05 2d 3e 30 02 0b 3e
       -0.17266726 0.20813946 0.1689663 0.13575053
0000a0 59 58 cb bc 9f da dc bd e4 09 37 3d 9b 7a 9e be
       -0.0248224 -0.10783886 0.044687167 -0.30952916
0000b0 b7 79 2c be 01 a6 1c be 40 8b 11 3e a4 6f 56 3e
       -0.16843306 -0.152977 0.14213276 0.20941025
0000c0 33 47 34 be b2 98 9b 3d 06 d6 20 3e 8f ae 74 3e
       -0.17605285 0.07597484 0.15706643 0.23894714
0000d0 5d c8 4d 3e a4 7c 3b 3c b5 04 15 3e 28 2a ab bd
       0.20095964 0.011443291 0.14552577 -0.0835765
0000e0 7c f2 d6 3c 15 2f 8b be 0b d5 e8 bd 90 ec 34 be
       0.026238672 -0.27184358 -0.1136876 -0.17668366
0000f0 a9 58 0a 3d 75 4b 89 3d 9f 3f 1d be 41 c9 1d bc
       0.03377596 0.067038454 -0.15356301 -0.009630502
000100 45 17 e0 3d f9 ba 9b bc 5f c4 af bd 33 11 92 3c
       0.10941938 -0.019010054 -0.08582377 0.017830467
000110 29 3c 49 3e 9d ac 38 3e c5 04 8b be 06 f9 b4 bd
       0.19651856 0.18034597 -0.27152076 -0.0883656
000120 27 ad 90 3e 86 f9 8f 3e b9 c8 ed bc 1d 01 d9 3e
       0.28257105 0.2812006 -0.029026376 0.42383662
000130 f2 b0 cb 3d 3e 01 08 bf 8d 61 48 3e 32 e7 0d be
       0.09945859 -0.53126895 0.19568463 -0.13857725
000140 1f 9d 0c bf 45 e9 d9 3e 3c e5 85 3e e8 75 11 bf
       -0.5492725 0.42560783 0.26151454 -0.56820536
000150 7a c3 2b 3d d3 d5 6a bd 0e 53 26 3c 58 b4 13 be
       0.041934468 -0.057332825 0.010151638 -0.14424264
000160 42 87 d1 3d d6 1c e8 bd 34 f4 bf 3d bd 91 0c 3e
       0.102308765 -0.11333625 0.0937275 0.1372747
000170 be 52 87 3e 79 48 c4 3d 36 be 96 be df b7 04 be
       0.26430315 0.095841356 -0.29441994 -0.12960766
000180 26 7a 16 3e 63 4d 1f 3e a6 d6 2a be a2 56 27 be
       0.14695033 0.15556864 -0.16683444 -0.16341642
000190 f7 c1 bb 3e af 78 81 3e b6 05 fc bd e6 4d b8 3c
       0.3667142 0.25287387 -0.12305777 0.022498082
0001a0 0b d7 5d be ba f9 1b bb 44 56 fa bd 71 42 28 be
       -0.21664064 -0.0023799972 -0.12223485 -0.16431595
0001b0 e8 81 29 3e 82 a8 ec 3c 1c e7 a7 be 44 9b b4 3e
       0.16553462 0.028888945 -0.3279351 0.35274708
0001c0 3a b2 42 be 75 f2 55 3d 6a 31 c2 3e 38 09 84 be
       -0.190133 0.05223318 0.37928325 -0.25788283
0001d0 39 28 90 be 0c 23 47 3e 6d 9e e2 3c b8 9f 10 be
       -0.28155687 0.19446963 0.027663434 -0.14123428
0001e0 88 d8 f6 3d 1f 0e 03 3e dd ea 8e bd 76 4a 13 3e
       0.12053019 0.12798356 -0.0697839 0.14383873
0001f0 e4 36 2a be c4 dc cc bd 5d 28 85 bd f9 1b f5 bc
       -0.16622502 -0.10003045 -0.06501839 -0.029920565
000200 8a 19 f5 bc b8 da 6a be 9b e3 49 3d 9f f5 07 3e
       -0.029919405 -0.22934997 0.049289327 0.13277291
000210 8d 63 21 be 23 e0 b2 bd a0 e7 ec 3d 0d 17 4a 3a
       -0.15760632 -0.08734157 0.115676165 0.00077091233
000220 26 1d 84 bd 6f 4d ed bd 80 00 b6 3d b3 61 e3 3d
       -0.06450872 -0.11587035 0.08886814 0.11102619
000230 1a da 3a 3e 83 e9 5a 3e f1 5e 4e 3e 9c 0e e5 bd
       0.18247262 0.2137814 0.20153405 -0.11184427
000240 ed 3d 90 be a7 c1 3a be 03 92 1e 3e 5d b4 c6 bc
       -0.28172246 -0.18237935 0.15485387 -0.024255926
000250 d4 8b 41 be de a0 86 be fa c9 95 be df 0b 94 be
       -0.18900996 -0.26294607 -0.29255658 -0.28915307
000260 40 58 cd bd e0 33 0b 3e 11 69 e2 3d 5a e9 a3 be
       -0.10026598 0.13594007 0.11055196 -0.3201397
000270 0c 49 64 3e 80 4f c5 bd 4a 46 8e 3b 0f ef 97 bd
       0.2229349 -0.09634304 0.004341875 -0.07418644
000280 4a 6d 97 3d fc 69 0e 3c 30 5e 5d be 23 2a f5 bd
       0.07393892 0.008692261 -0.21617961 -0.119709276
000290 b8 78 a5 3c eb d9 3e 3d f6 75 d1 ba 0c 4b 32 3e
       0.020199165 0.04659454 -0.001598059 0.1741144
0002a0 5f ef e3 be 26 3b cf 3e c1 1b 26 3c a0 31 9b be
       -0.44518563 0.40474814 0.010138453 -0.30311298
0002b0 6b 55 2f 3f 9b 84 0e be 46 4a e4 be 25 5c 1b 3f
       0.6848971 -0.13917772 -0.44587916 0.60687476
0002c0 06 d9 8d be 8c e2 a0 be 57 b2 27 3f 63 39 f4 be
       -0.27704638 -0.31422842 0.655065 -0.47700033
0002d0 a7 db 98 bc 60 8a df bd 7b 95 1c 3e a7 85 fd 3c
       -0.018659426 -0.10915065 0.15291397 0.03094752
0002e0 35 51 b8 3d 63 8d 47 3d 39 d1 f3 bd 28 18 e0 bd
       0.08999864 0.04871882 -0.119051404 -0.109421074
0002f0 d4 0d 95 be 24 b2 da 3d a5 d3 38 3e 86 bf 13 3e
       -0.29112113 0.10678509 0.18049486 0.14428529
000300 6d a1 1c be 6b 9e 5b 3d 06 bd 25 be 9c b1 dd bd
       -0.15295954 0.053617876 -0.16185388 -0.10824892
000310 c4 84 02 be 49 aa 0f 3e 40 90 f8 bd f9 15 0d 3d
       -0.12745959 0.14029802 -0.121368885 0.034444783
000320 00 4f 5c 3d 22 6f 72 3e 63 b8 35 be d2 4a 20 be
       0.053786278 0.23675206 -0.17746119 -0.15653542
000330 1d 36 39 be 5d 39 19 3e 87 3a be bd 96 c5 6b 3e
       -0.18087049 0.14963289 -0.09288507 0.23024592
000340 d3 e4 54 3d f3 4e 42 3d 03 41 7c bc 27 34 e0 bd
       0.051976036 0.047438573 -0.015396359 -0.10947447
000350 a3 ef 40 3d 46 21 a2 bd 56 fa 5e bd a7 73 43 3d
       0.047103535 -0.07916503 -0.054437958 0.047717717
000360 04 e2 64 bd 96 bb 99 be 3f d4 a3 3e 68 c9 83 bd
       -0.055879608 -0.3002593 0.31997868 -0.064348996
000370 47 c3 2d be 03 b1 be 3e cf 63 8c 3e f3 2a 10 be
       -0.16969024 0.37244424 0.27419898 -0.14078884
000380 25 34 27 be 61 38 a0 3e 7b 8a b5 be 71 82 a1 3b
       -0.16328485 0.31293014 -0.35457215 0.00492888
000390 ac 4d 2f be d6 db 2a 3d 90 93 ae bd 90 b0 27 3e
       -0.17119473 0.04171356 -0.08524239 0.16375947
0003a0 99 ca f6 3d 11 3e 2e 3e ac 67 d1 3d 4e c8 c8 bd
       0.12050361 0.17015864 0.10224852 -0.0980383
0003b0 da 39 28 3d f6 8b 8e be 5e 2d 1b bd 1f 1b 65 bb
       0.041070797 -0.27841157 -0.037885062 -0.0034958792
0003c0 07 33 20 3e fa 17 66 3e 98 53 0c be 54 3a 7c 3d
       0.15644465 0.22470084 -0.13703763 0.061579064
0003d0 7e 84 20 3e 72 86 a5 be 1c 26 8a 3e dc 18 6c be
       0.15675542 -0.32329136 0.269822 -0.23056358
0003e0 2d 5e 24 bd b1 4b 45 3c 7a 5a 13 be 44 1e c3 bb
       -0.040128876 0.012041972 -0.14389983 -0.0059545357
0003f0 4d ad 8c 3e 4f 70 07 be 23 15 c3 bd 7f d6 90 bd
       0.27475968 -0.13226436 -0.09525516 -0.07072162

fea_conv.pw.bias f4 [48]
000000 9c 0e fd 3e c8 12 9f bc c0 be 11 bd 42 fe 93 3b
       0.4942521 -0.019418135 -0.035582304 0.004516394
000010 80 63 89 3c 2f a5 1f 3c b1 3a b7 bd 67 35 55 bc
       0.016771078 0.009743973 -0.08946741 -0.01301322
000020 15 13 c7 3c 20 67 92 bb 16 b4 47 3d c5 15 10 be
       0.024301091 -0.00446786 0.048755728 -0.14070804
000030 2c 0b 5d 3f 1c 7a ec bc bc 9a af 3b 99 67 4f be
       0.8634517 -0.02886682 0.005359022 -0.20254363
000040 7d e1 84 3e bd f9 d7 bc dd be 3d bc fc 3e d5 3c
       0.25953284 -0.026364202 -0.01158115 0.02603101
000050 98 a0 cd 39 b6 e6 d8 ba 11 99 23 bc 62 5f 3c bb
       0.000392203 -0.0016548249 -0.009985224 -0.0028743376
000060 58 33 9d b9 9e 24 a0 3d 53 61 04 3d e6 35 8f 3b
       -0.00029983628 0.07819484 0.032319378 0.004370439
000070 a0 79 5f be a0 12 92 bc 2e 1f f3 bc 3f af 1f bc
       -0.2182374 -0.017831147 -0.029677954 -0.009746372
000080 ee 5d 3c bd 11 ad 36 be 0e 00 46 3b 6e dd 1c 3d
       -0.045988016 -0.17839457 0.0030212435 0.03829711
000090 eb 69 16 3e 9e 81 97 ba 58 3e 66 3e 68 8a 82 3e
       0.14688842 -0.0011559015 0.2248472 0.2549622
0000a0 1b ca 43 bb 85 de e2 bc 2d 22 c7 bc 12 a7 09 bd
       -0.0029875103 -0.027693996 -0.024308288 -0.033606596
0000b0 24 c3 ab bd f2 aa 84 3e a2 47 bb 3b ff 07 92 bc
       -0.083868295 0.2591167 0.0057153264 -0.017826078

fea_conv.dw.bias f4 [48]
000000 33 26 ce 3d 42 2c 33 3b 36 9d 53 3a 49 bb 8d 3a
       0.1006588 0.0027339612 0.00080724375 0.0010813262
000010 0b 76 89 bd 34 26 5b 3a 66 9e 1b 3e ec 4f cd 3d
       -0.06711968 0.000835988 0.15197143 0.100250095
000020 7e 84 1c ba f2 3c 34 3b 7a ac a7 ba ac 77 4b bb
       -0.00059706706 0.0027502147 -0.0012792491 -0.0031046672
000030 d9 7a 3e 3e 5b b8 d1 ba f3 9c d9 bc 65 5c 0c 3c
       0.1860155 -0.0016000377 -0.026564097 0.00856695
000040 3a 49 a2 39 8d 85 4c b9 9e b4 69 3a 20 0a c6 b8
       0.00030953606 -0.00019504708 0.00089151587 -9.443262e-05
000050 8e 44 68 b8 6b 47 c8 3a f8 7b 82 3d a3 14 7e b9
       -5.5376957e-05 0.0015280073 0.063713014 -0.00024231015
000060 0b 46 27 ba 67 9d a4 3a c7 53 36 b9 ba d9 86 b9
       -0.00063809816 0.0012559117 -0.00017388082 -0.0002572069
000070 03 f6 02 3b 7b 93 4f 37 d7 7e 6b ba 00 23 ed 37
       0.001998306 1.2372499e-05 -0.0008983439 2.82689e-05
000080 4f dc 55 ba 81 c3 9c ba 22 de 86 bc 0b 68 af 39
       -0.0008158134 -0.001196012 -0.016463343 0.0003345612
000090 9f 7b 7c ba 69 aa 52 3d df 4e 9f bb 13 4b 8c 3c
       -0.0009631458 0.051432047 -0.004861697 0.017125642
0000a0 72 53 95 39 d5 21 12 3b ba 6c 8a 3a 28 2a 25 3a
       0.00028481666 0.0022297997 0.0010560967 0.0006300532
0000b0 21 4c b5 ba 1f eb da bb 6c d3 ab 3d 5f 9c 93 ba
       -0.0013831892 -0.0066808606 0.08389935 -0.0011261812

B1.cw f4 [1, 48]
000000 e8 d7 8c 3e 68 85 b8 3e 0a 0e ad 3e f6 a2 dc 3e
       0.27508473 0.3603928 0.33799773 0.4309308
000010 6a a3 90 3e 2c a6 18 3f a9 ad 30 3f cf c5 f8 3f
       0.28249675 0.5962856 0.69014984 1.9435366
000020 bd f6 eb 3e dd c5 18 3f bc bf f4 3c d7 e1 e1 3d
       0.46086684 0.59676915 0.029876582 0.11029404
000030 01 f1 41 3e f4 fb 60 3e d2 6d 39 3e 50 1a de 3d
       0.18939592 0.21971112 0.181083 0.108448625
000040 67 d0 c6 3e a6 31 90 3e 8f 18 68 3e a1 2a 9e 3e
       0.38830873 0.2816288 0.22665618 0.30891898
000050 1b fe 95 3e 2a d0 1c 3e 71 e1 b0 3e 84 02 a1 3e
       0.2929543 0.15313783 0.34546998 0.31447232
000060 6e 96 de 3c 6a dd dc 3e 64 0a 6a 3e ed b3 d2 3e
       0.02717134 0.43137676 0.22855526 0.41152897
000070 6b b3 01 3f b7 31 fd 3e 61 8f 45 3e 64 22 83 3e
       0.50664395 0.49451992 0.19292976 0.25612175
000080 5a 20 b6 3e b1 d2 ca 3e 5c fb 95 3d de 22 65 3e
       0.35571557 0.3961387 0.073233336 0.22376582
000090 52 a7 df 3d 4a 0d 51 3e 46 e0 9a 3e 7f f6 9e 3d
       0.10920586 0.20415226 0.30249232 0.07761859
0000a0 d1 75 a6 3e 19 d5 24 3f 00 7e 65 3f e1 19 39 3e
       0.32511762 0.6438766 0.89645386 0.18076278
0000b0 e6 5b 17 3d 2b 94 dd 3e 67 bf b6 3e d0 4d 81 3e
       0.036952876 0.43277106 0.35692903 0.2525468

B1.c1_d.weight f4 [24, 48]
000000 50 73 a2 be 1d db 8c c0 4f 70 a1 3f ed 72 7b 3f
       -0.317286 -4.401747 1.2612399 0.9822224
000010 e5 5a 92 3d f1 26 83 c0 b7 4d 83 be f5 5f 0a be
       0.07146243 -4.0985036 -0.2564523 -0.13513167
000020 a0 d1 5f be 55 0b 88 3f 30 31 af bf dd 0b 37 c0
       -0.2185731 1.0628458 -1.3686886 -2.860099
000030 4f 3c ae bd 3b 19 aa c0 98 66 23 3f 54 ed 97 bf
       -0.08507597 -5.31558 0.6382842 -1.1869302
000040 b9 6b 01 bf 10 74 ad 3e 4e d9 08 3f 5b 25 12 40
       -0.50554997 0.3387761 0.5345658 2.28353
000050 bc 92 12 40 28 e6 3a c1 53 7d 2c be c5 c4 8f be
       2.290206 -11.6811905 -0.16844682 -0.2807981
000060 d6 18 20 c0 89 00 7c 3f fc ad 0c 40 8e 65 52 40
       -2.5015159 0.98438317 2.1981192 3.2874484
000070 d1 0c 83 be 91 6a aa 3e 8f 68 b5 3e 00 33 a7 c0
       -0.25595716 0.3328443 0.35431334 -5.2249756
000080 43 dd bc 3f d7 b2 07 bf 27 cf 90 3e 32 00 b9 bf
       1.4755024 -0.5300726 0.28283045 -1.4453185
000090 92 86 87 c0 b9 f1 67 3d f5 64 f0 3f 58 82 9f 3e
       -4.235177 0.05662701 1.878081 0.31154132
0000a0 d5 22 b3 bf 67 8a 43 3f 62 60 0f 3f 88 92 af 3f
       -1.3995005 0.7638306 0.56006444 1.3716593
0000b0 2e ec 8e 40 80 18 9c 3e 7d 8a 06 3e 65 5c 82 3c
       4.4663305 0.30487442 0.13138767 0.015913198
0000c0 79 d1 17 3f d6 b2 0f c0 c4 f5 a9 3e 7f d0 b1 be
       0.59304005 -2.2452903 0.33195317 -0.34729382
0000d0 f9 1c c3 3e cf 9c fe 3e fc e4 71 3f cd e5 d8 be
       0.38108042 0.4972901 0.9449003 -0.42362824
0000e0 78 74 25 c0 47 ad 10 3f d5 5b 33 3e 73 65 0c 3e
       -2.5852337 0.565144 0.175155 0.13710575
0000f0 c7 36 b3 3f 88 21 59 3f 72 9e e2 bf f5 7b 2e 3f
       1.4001092 0.8481679 -1.7704604 0.68157893
000100 ba 8a 77 3f 25 08 98 3e 81 65 45 bf c1 2d b5 be
       0.96696055 0.29693714 -0.7710801 -0.3538647
000110 cc e9 bb 3e dc 31 c3 bf 8d b1 c6 be 39 2d 98 bf
       0.3670181 -1.5249591 -0.38807335 -1.1888801
000120 54 03 9c bf 39 f9 54 bf 76 8a 08 3f 60 e8 ba 3f
       -1.2188516 -0.83192784 0.53336275 1.4602165
000130 a6 fe 11 c0 f7 26 98 be d3 e8 54 bf 6b e9 f7 3f
       -2.2811675 -0.29717228 -0.8316776 1.9368109
000140 e4 a8 f3 be 6d f2 0f 3f 28 0b 8e 3d 60 e8 a5 bf
       -0.4758979 0.5622929 0.06935722 -1.296154
000150 de 11 df be 0a 9e 4a bf 31 40 64 bf 54 a5 d0 be
       -0.4356832 -0.791474 -0.8916045 -0.40751135
000160 a3 94 53 bf d3 1d e1 3e f8 dd 8a be b9 36 0d bf
       -0.82648677 0.43968067 -0.27122474 -0.55161625
000170 9a 56 a0 bf cc 34 4e bf 96 36 e5 be f8 57 08 40
       -1.2526429 -0.8054931 -0.44768208 2.1303692
000180 f3 c9 0c 40 29 0e 39 c0 b2 07 c9 3f 21 82 d7 c0
       2.199826 -2.8914893 1.5705473 -6.734635
000190 29 12 c2 3c 63 1c 05 40 4c 36 00 3f 5c 3d 35 bd
       0.0236903 2.0798576 0.5008285 -0.04424797
0001a0 90 16 40 c0 94 2e 30 c0 31 78 37 c0 3e bf 9e 3f
       -3.001377 -2.752843 -2.866711 1.2402112
0001b0 40 a2 9b bf c8 ca a4 bf 51 9a e2 3e f6 a6 b4 3f
       -1.215889 -1.2874384 0.4425836 1.4113452
0001c0 66 9c 94 bf 8e 73 95 3f 13 43 0c bf c6 63 3c 3f
       -1.1610229 1.167589 -0.5478985 0.7358974
0001d0 f7 ae 64 be c5 68 bf bd c8 1b 0c bf 3a 01 bc c0
       -0.22332369 -0.09346155 -0.5472989 -5.8751497
0001e0 47 5d 00 c0 ce c0 8c bd ba 9a 89 bf f5 34 45 40
       -2.0056932 -0.06872712 -1.0750344 3.0813572
0001f0 f4 40 eb be 80 65 71 40 45 76 e0 3e 7c ce f7 bf
       -0.45947993 3.77182 0.43840232 -1.9359889
000200 e4 6d 28 3f b4 01 02 c0 c0 ee 69 3e 3d 36 dc bf
       0.6579268 -2.031354 0.22844982 -1.7204052
000210 23 55 ba 3e 1d ca a4 bd fb 68 46 bc 94 96 72 bf
       0.3639308 -0.080463625 -0.01210999 -0.94761014
000220 d8 21 f3 bf 0d bf 50 3f d0 2a 9f 3f 3f d6 00 c0
       -1.8994703 0.8154152 1.243494 -2.0130765
000230 ca e3 b7 bf bd 70 b0 3f 0c 50 b3 be 74 e4 f5 bf
       -1.4366391 1.3784405 -0.35022008 -1.9210343
000240 ef a0 60 bf 0b 9f 0b c0 d3 62 bf 3d a2 32 7b 40
       -0.87745565 -2.1815822 0.09345021 3.9249654
000250 1c 05 8a 3e 2d 17 da 3f e6 d0 eb be 00 89 7b be
       0.26957023 1.7038323 -0.46057814 -0.2456398
000260 c2 02 8d 3f aa 06 66 3f ab af 34 bf 40 5c 9f 3f
       1.1016467 0.8985392 -0.7058055 1.2450027
000270 46 99 e4 bd 0c 43 fb be 10 9d 09 be 21 e1 85 c0
       -0.11162047 -0.4907459 -0.13438821 -4.1837316
000280 e0 38 32 3e 01 bc 39 3f 98 ce c1 3e 54 48 3e 3e
       0.17404509 0.72552496 0.3785293 0.18582278
000290 6d f2 96 3f 15 b6 5d c0 1f 3f 8f be 81 97 cb 40
       1.1792732 -3.4642384 -0.27977845 6.362244
0002a0 1e 76 47 40 3e b0 22 3f 73 37 5b 3f 0d 1a ec bf
       3.1165843 0.63550174 0.85631484 -1.844545
0002b0 e0 11 f5 bf 95 5f 5b 3f c1 13 2c bf ac 66 15 c0
       -1.914608 0.8569272 -0.6721764 -2.3343916
0002c0 ae 56 10 c0 18 b4 8c bf 6e a7 b5 3d d8 b9 04 c0
       -2.2552905 -1.099246 0.08869825 -2.073843
0002d0 29 54 01 3f 11 73 bc bd 75 9e c6 bf 91 03 86 40
       0.50519043 -0.09201635 -1.5517107 4.1879354
0002e0 16 af 1b 3f 8a 52 fa 3f d9 29 89 bf 24 ff ec bf
       0.60814035 1.9556439 -1.0715896 -1.8515363
0002f0 42 cc b7 be 9d da 60 bf 5e 99 aa be 15 5b 97 3e
       -0.35898024 -0.8783358 -0.33320135 0.29561678
000300 b5 51 2c 3f a9 09 b1 bf 46 41 06 40 9c 79 82 bf
       0.67312175 -1.3831073 2.097734 -1.0193362
000310 5f 4d 46 3d 1d 5a 8f 3e bc ac 5f be b2 23 4a 3e
       0.04841363 0.27998438 -0.21843237 0.19740179
000320 90 1e 92 c0 ba bf c8 3d 69 a9 9c bf ca 0b 1c c0
       -4.566231 0.09802194 -1.22392 -2.4382195
000330 8c c9 bb be 1b 0a ab bd cc 60 02 40 ce 39 7f bd
       -0.36677206 -0.08351537 2.037158 -0.062310986
000340 5c e8 8d bf a4 2d 9e be d6 4d 01 c0 2b 90 19 3f
       -1.1086535 -0.30894196 -2.0203757 0.5998561
000350 8d 68 b6 3f 92 67 81 bf 61 d2 05 be 36 cb 97 3e
       1.4250656 -1.0109732 -0.13068534 0.29647225
000360 97 04 91 bf 54 79 28 40 15 bf 17 40 ce 80 54 c0
       -1.1329526 2.6324053 2.3710377 -3.3203616
000370 70 9b 55 bf a7 fc e0 3f 4f af 7a 40 88 1a 0a 3f
       -0.83440304 1.7577103 3.91695 0.53946733
000380 d1 12 d7 bf bf d6 18 c0 d5 20 7e be a1 3f a3 be
       -1.6802617 -2.388107 -0.24817212 -0.31884483
000390 69 74 2a c0 6c 42 fa 3d 19 93 91 3f 9a da f3 3f
       -2.663355 0.122197 1.1373016 1.9051087
0003a0 19 ff 1f 40 f6 f4 96 3e 61 3a be be 04 c3 12 40
       2.499945 0.29483765 -0.37153915 2.2931528
0003b0 07 e3 59 c0 bd c6 eb 3e 86 b9 d9 3d bc 63 60 c0
       -3.4044816 0.46050063 0.10631089 -3.5060873
0003c0 de 21 00 bf ea 75 d7 bf 72 08 2a 40 34 11 d0 3f
       -0.5005168 -1.683286 2.6567655 1.625525
0003d0 05 05 29 be 5a 74 da bf e6 04 db bf 25 e6 e9 3e
       -0.16505821 -1.7066758 -1.711087 0.456834
0003e0 46 5b 1c c1 5a 32 49 40 95 22 3a c0 c8 c2 7f 3e
       -9.772284 3.1436982 -2.9083607 0.24976647
0003f0 4b e7 d1 3e 33 bf e0 3f 35 0e b5 bf b2 ad 59 c0
       0.40996775 1.7558349 -1.4144961 -3.4012265

B1.c1_d.bias f4 [24]
000000 8b 7f ba 3d a7 37 10 bf c1 0c 82 be 16 e4 2d bb
       0.09106358 -0.5633492 -0.25400355 -0.0026533655
000010 5f 4d 06 3d fd a1 cd 3d 8e 46 a6 bd 1e 7b 1f 3e
       0.03278863 0.100406624 -0.08118926 0.15574309
000020 c8 4f ba 3d 38 02 c2 3d 7f 68 b5 be c6 b3 15 be
       0.09097248 0.094730794 -0.35431287 -0.1461936
000030 f4 bd c3 be 6f 7d 1e be 35 d5 9f 3e b1 9b 58 3e
       -0.3823086 -0.15477537 0.31217352 0.21153142
000040 9c fd 57 be 7a bd 80 bb 07 e4 6e bd 36 7b e2 bd
       -0.21092838 -0.0039288374 -0.058322933 -0.11058657
000050 e2 52 a7 bd 0a b1 0d 3d b0 9d 29 bf ac 95 19 be
       -0.081701055 0.034592666 -0.6625624 -0.14998502

B1.c1_r.pw.weight f4 [48, 48]
000000 ca a6 ca 3e 7d af 1d 3f ac 68 d6 3d aa 2b c4 3e
       0.39580375 0.615959 0.10469183 0.38314563
000010 1b 6e d2 3e 8e 1d 89 3f e2 fb 68 3e 99 37 96 be
       0.4109963 1.0712144 0.22752336 -0.29339293
000020 e3 9b 09 3f 0f 5d 9b be 4a 59 50 3f e4 39 31 bf
       0.5375349 -0.30344436 0.81386244 -0.6922896
000030 be b0 4e 3e db 1c 5a bf c0 01 84 be ac 33 d9 bf
       0.2018461 -0.8520028 -0.25782585 -1.6968894
000040 c0 8a 24 be 9b 97 75 bd fb 2d 5b 3d fa dd 05 3e
       -0.16068554 -0.059959035 0.053510647 0.13072959
000050 e2 7c 8e 3d bc fe ed be bd 1f b0 be ef cd 00 40
       0.06957413 -0.4648341 -0.34399214 2.0125692
000060 6d 6a a1 bf 72 29 ab 3d 4b fe 1b bf c7 0c d6 3f
       -1.2610604 0.083575144 -0.60934895 1.6722649
000070 19 15 3e 3f 1e c4 fd 3f 1c da cd be 4e 86 88 3e
       0.7425094 1.9825475 -0.40205467 0.26664966
000080 28 ea 3a 3e b0 20 16 3f 55 c4 30 3e 90 ac e0 bd
       0.18253386 0.5864363 0.17262395 -0.10970414
000090 79 36 b8 bf 0d 1f ec be 5d dc 64 be d8 4e 72 3d
       -1.4391624 -0.4611744 -0.22349687 0.059157223
0000a0 ee a1 e4 bc 87 16 4b bf 87 1d 26 3d 1b 6c 38 bf
       -0.027909245 -0.7933125 0.040555503 -0.72039956
0000b0 ff 24 be bf fb 44 b9 be f1 f7 cc be e5 a2 a3 bf
       -1.485504 -0.3618544 -0.40032914 -1.2784086
0000c0 54 9b 4a be b6 42 09 c0 c1 5e 0f 40 32 fe ba bf
       -0.19785815 -2.1446967 2.2401583 -1.4608824
0000d0 c2 e3 8f be ae 20 56 bf d5 36 44 bf 06 fc 4d 3d
       -0.28103453 -0.83643615 -0.7664617 0.050289176
0000e0 10 11 00 40 30 5c 80 c0 57 45 fa 3f 47 1a c1 3e
       2.0010414 -4.0112534 1.9552411 0.3771536
0000f0 eb 39 97 3d ff 5c db bf 26 16 e9 3e 81 bb 9c 3e
       0.07384094 -1.7137755 0.4552471 0.30611804
000100 83 7b 66 be b8 c2 69 3f b3 06 96 bf 3a 00 33 c0
       -0.22508053 0.9131274 -1.1720794 -2.7968888
000110 50 e5 35 40 6d 4c 1c 40 20 05 a1 be 1e 22 50 bf
       2.8421211 2.4421647 -0.31449223 -0.8130206
000120 14 af 37 c0 38 59 da 3f 40 02 06 c0 26 f0 30 c0
       -2.870061 1.7058477 -2.0938873 -2.7646575
000130 e2 e1 32 be 72 4a 1b 40 53 d4 40 40 2f 74 4c 40
       -0.1746898 2.4264188 3.0129592 3.1945913
000140 8f 15 e5 3f 34 32 a0 bf 47 8e 36 be 7e d9 61 be
       1.7897204 -1.2515321 -0.17827712 -0.22055623
000150 3f 6a c5 3d 39 a7 20 3e 03 01 19 bf 84 4c 15 bd
       0.096394055 0.1568879 -0.5976717 -0.036449924
000160 1f 50 14 bf 2c 79 91 bf c8 77 cc bf fb eb 04 c0
       -0.57934755 -1.1365104 -1.5974054 -2.076903
000170 b2 e0 6b c0 70 53 1b be 94 14 71 be 9d c0 89 40
       -3.6855893 -0.15168548 -0.23543006 4.3047624
000180 68 13 06 be 0f 90 d9 3e af fd 77 bf b3 83 61 3f
       -0.1309334 0.4249272 -0.96871465 0.8809158
000190 bd 79 03 3c 21 8d 07 c0 f6 1d 9d 3d 87 3b 3b 38
       0.00802463 -2.1179888 0.0767173 4.4639713e-05
0001a0 18 b9 fc bf 22 b5 bf be 96 00 ff 3f d5 a7 fd be
       -1.9743986 -0.3744288 1.9922054 -0.49542108
0001b0 45 4f 87 be 7f 1a a1 bf 05 44 d8 bd c4 b3 09 bf
       -0.26427665 -1.2586211 -0.10559849 -0.53789926
0001c0 a9 6a c2 3e 75 a5 a4 3e de 20 d5 be 9c 05 bc bf
       0.37972 0.32157484 -0.41626638 -1.4689212
0001d0 76 a1 84 be 6a 7a 5e c0 be c7 3a 3d 99 40 e1 bf
       -0.25904435 -3.4762216 0.045600645 -1.7597839
0001e0 a0 14 4f be 50 82 91 3e 61 b2 cd 3e 16 84 0d 3f
       -0.20222712 0.28419733 0.40175155 0.5527967
0001f0 73 36 19 3e a5 bb d2 be f7 e2 d7 bf d9 01 86 bf
       0.14962177 -0.41158786 -1.6866139 -1.0469314
000200 9e 26 fb bd 8b 0d 1c 3f 0e dd ed be aa 5d c3 bf
       -0.12263225 0.60958165 -0.46457714 -1.5262959
000210 5b b3 f1 bf c0 52 13 3d df 9e 11 bf 03 dd b0 be
       -1.888286 0.03596759 -0.56883043 -0.3454362
000220 85 ca ce bf 13 6c 32 bf 8d d9 20 bf 8a 2f 1d bf
       -1.6155554 -0.6969616 -0.62831956 -0.61400664
000230 c5 19 ca 3f 1c 27 98 bf 87 44 eb 3b 26 22 5f 3c
       1.5789114 -1.1886935 0.0071798 0.0136189815
000240 52 79 02 3e 99 ff 5a 3e 9c 62 3e 3f b3 ee 26 c0
       0.12741593 0.21386565 0.74369216 -2.608319
000250 2f e5 36 3d e4 9e 2e 3f 5c dc 6d bf c4 1d ea 3e
       0.04465216 0.682112 -0.92914367 0.45725834
000260 3d 26 80 c0 1e d2 d3 3f 48 2c 06 c0 75 29 6e bf
       -4.0046678 1.6548498 -2.0964527 -0.9303201
000270 29 44 d7 3d 2b bd 4c 40 0a b4 37 3f 36 12 eb bf
       0.105110474 3.199046 0.7175909 -1.8364933
000280 78 c4 02 be 2d dc 58 3f 2c 3e cc 3f 09 26 c0 40
       -0.1277026 0.8471096 1.5956473 6.004643
000290 4b 4a c4 bf b9 e7 28 40 bb c1 86 be f0 4c d9 be
       -1.5335172 2.6391432 -0.2631968 -0.4244151
0002a0 c7 8c c4 bf 8d 46 83 bf 98 45 d2 3e 29 9d 1b c0
       -1.5355462 -1.0255905 0.4106872 -2.4314673
0002b0 08 49 50 bf 5b 1d f2 3e 48 13 69 40 76 82 8c be
       -0.81361437 0.4728802 3.6418018 -0.27443284
0002c0 b1 de a4 bf 7b 30 e7 be 5f 09 01 be 53 9b e3 bf
       -1.288046 -0.45154175 -0.12601231 -1.7781776
0002d0 32 86 1e 3f 25 24 fb 3d 19 5a 43 3f 5b a9 26 3f
       0.61923516 0.122627534 0.76309353 0.65102166
0002e0 40 1c ce 3e 46 90 2a 3f 4f 2f 61 c0 a7 3a 96 3f
       0.40255928 0.66626394 -3.5185125 1.1736649
0002f0 a6 c3 28 c0 e1 1d b5 3e 6a ba 0a 3f d0 1f 9b bf
       -2.6369414 0.35374358 0.54190695 -1.2119083
000300 7d c6 28 3e 56 a8 0f 40 bd dd b0 40 b4 a4 ff 3f
       0.16481967 2.2446494 5.5270677 1.9972138
000310 23 29 2c 3d a2 5e 34 3f 64 3b a5 3b ca 6a 2a 3f
       0.04203142 0.704569 0.0050424803 0.665692
000320 58 6a 06 41 9f 62 e2 bd af 3b ec be 05 e7 b7 be
       8.400963 -0.11053967 -0.46139285 -0.3591844
000330 23 b9 82 bc 24 fe af c0 83 f1 30 3d ac 9b 35 bf
       -0.01595742 -5.499773 0.043199074 -0.7094066
000340 f3 b7 66 bd 4b 20 e4 be 27 b6 14 c0 73 ef d3 3f
       -0.05632777 -0.44555888 -2.3236177 1.6557449
000350 dc 50 4b be 43 04 fe bf 6c 38 83 3e 23 83 bb be
       -0.19855064 -1.984505 0.25628984 -0.36623487
000360 47 15 47 c0 90 a7 06 be c3 ce dd 3f e7 b0 9e 40
       -3.1106737 -0.13149858 1.7328724 4.9590945
000370 c3 b1 75 bf 5b c5 b7 be 3e 95 e5 40 c6 fa 60 c1
       -0.9597437 -0.35892758 7.174468 -14.061224
000380 4c a2 7d c0 4e 49 37 3f 30 7f cc 3e b5 6c ba 3e
       -3.9630308 0.7159623 0.39940786 0.36411062
000390 5d c6 6a be ae 29 2d 3e 04 14 a8 3e fa 88 c9 3e
       -0.22927232 0.16910431 0.3282777 0.39362317
0003a0 91 51 0b 3f 59 2a b4 3f c5 8f b0 3e 47 40 34 3f
       0.54421335 1.4075423 0.34484687 0.7041058
0003b0 1b db 8c bf 11 14 5f bd a9 7d 8f 3d 9c 30 1d bf
       -1.1004366 -0.054462496 0.0700639 -0.614023
0003c0 28 c2 54 bf 2a 41 bc 3d 46 0f fe 3f 27 b8 e6 bf
       -0.8310876 0.091921166 1.9848411 -1.8024949
0003d0 46 cb 6e 3d 03 cf c9 bf d3 1e d9 3d d6 65 31 bd
       0.058299325 -1.57663 0.106015824 -0.04331001
0003e0 3f 17 b3 3e 62 8f c0 40 8d 7c 2b 3f 8c da ec bd
       0.34978673 6.017503 0.66986924 -0.11565122
0003f0 f7 30 91 bc 02 0c b7 bf 2a bd 27 be ae 27 86 40
       -0.017723544 -1.430054 -0.16380754 4.1923437

B1.c1_r.pw.bias f4 [48]
000000 3b 74 fa be 04 0c 11 3e f5 ae 6c 3c 16 31 0d 3e
       -0.48916802 0.1416474 0.01444601 0.13788256
000010 50 97 f3 bd 88 dd a6 ba 07 a3 97 3d ff dd 72 be
       -0.11894095 -0.0012730816 0.07404142 -0.23717497
000020 be 0f 26 bd 39 9e 0e be bd 82 12 bf 6c 5b f7 3d
       -0.040542357 -0.13927545 -0.5723074 0.12077984
000030 a5 9a a9 3e 80 be 8b 3d 55 78 02 3e 18 98 07 be
       0.33125797 0.06823444 0.12741216 -0.13241613
000040 b4 a3 8f bd e2 de 65 3d 2f 0f db be 7b bb 7d 3d
       -0.07013646 0.05612076 -0.42785022 0.061946373
000050 97 dc f2 3e e2 00 3f bf 39 ff 38 bd 93 93 77 be
       0.47433922 -0.7461072 -0.045165274 -0.24177389
000060 85 20 52 bd f9 f7 32 3c 72 30 c4 3d 25 b5 aa 3e
       -0.051300544 0.010923379 0.09579553 0.33341327
000070 d4 1e 1d 3d 6e 4a c8 bc 72 b8 c7 be 19 fd 0e 3e
       0.038359478 -0.024449553 -0.39007908 0.13963737
000080 22 f5 00 3f ba 0b 99 bd 38 91 c7 3e a8 7c a9 3e
       0.50374043 -0.0747294 0.3897798 0.33102918
000090 c0 82 de be 34 c7 7e 3e a2 ce 6e bd c6 38 38 3d
       -0.4345913 0.24880677 -0.05830253 0.04497602
0000a0 dc 6e a1 bd a6 0b f1 3e b1 29 ad be 67 d2 62 3b
       -0.07882473 0.470792 -0.3382087 0.0034610273
0000b0 fd 54 83 3e bd ff ab 3d 9f a7 0f 3c 34 74 27 3f
       0.25650778 0.083983876 0.008767991 0.65411687

B1.c1_r.dw.bias f4 [48]
000000 6b 86 c2 3c ff 45 48 3c 19 77 3f 3d f1 d4 9f 3d
       0.023745736 0.01222372 0.04674444 0.07804287
000010 d5 32 e8 3d d2 f6 40 3e 62 30 76 be 07 60 88 be
       0.113378204 0.18844154 -0.24041894 -0.26635763
000020 9e 49 6a bc d2 0c 1d 3e c9 b5 39 3c bb 71 d9 3e
       -0.014299778 0.15336922 0.011334845 0.42469582
000030 2f 16 0c bf 29 b1 2f 3e f7 4e d3 3e 43 02 20 3e
       -0.5472135 0.17157425 0.41271183 0.15625863
000040 49 99 3d be 96 d3 18 bd d6 4b 19 3e 3b bd 66 bd
       -0.18515505 -0.03731116 0.14970335 -0.056332808
000050 66 f8 07 be 52 df 69 3d 1a 1a 2b bf 92 c9 3e 3d
       -0.1327835 0.05709774 -0.668367 0.04657895
000060 47 c0 5e be d5 f2 a7 3d d3 bd 14 3c ca 96 d6 3e
       -0.21753035 0.082006134 0.009078461 0.41911918
000070 5f 63 5d 3d ff 01 56 be b2 8f 99 3e 4c 5d e4 3c
       0.054049846 -0.20899199 0.29992443 0.027876519
000080 1b 0f 35 bf d0 fc 95 bd 0a 5d 3c 3f 0f 1c 18 bd
       -0.70726174 -0.07323611 0.73579466 -0.037136134
000090 3d e0 16 be 1c 71 18 be cb 9d 74 3d 1d 36 86 3c
       -0.14733978 -0.14886898 0.059720796 0.016383225
0000a0 89 3a a6 3d 21 1b 60 be c4 07 87 3e 85 3f 6b bb
       0.081166334 -0.21885349 0.26373112 -0.0035896015
0000b0 77 d8 83 3e a0 a8 ab 3d a0 86 60 be 46 75 5b bc
       0.25751087 0.08381772 -0.21926355 -0.013394659

B1.c2_d.weight f4 [24, 48]
000000 6f 37 b8 3f a1 7c da 3c b7 1a bb 3e 1a b6 26 bf
       1.4391917 0.026670756 0.3654382 -0.65121615
000010 02 04 03 bd 32 9d 53 3f 8e ec 27 c0 6d d5 cc 3c
       -0.031986244 0.82661736 -2.6238132 0.025004113
000020 c9 89 98 be 69 c4 0e 3c 42 25 38 bf fd 8a eb 3d
       -0.29792622 0.00871382 -0.7193185 0.11501119
000030 1a 3c d1 3e 03 22 1e be d3 da 18 be dd 04 36 bd
       0.40866166 -0.15442662 -0.14927225 -0.04443823
000040 a4 2a c3 3d 57 45 2d 3f 47 a6 e6 3d 84 58 4f bb
       0.095296174 0.6768393 0.11262184 -0.0031638453
000050 ee e9 ed 3c a4 9a f1 bb a4 bc 86 3e be b7 f6 bd
       0.02904221 -0.007373171 0.26315796 -0.12046765
000060 6e 5c 90 3e 49 e3 08 3e 3f bd ae 3f 17 4a 02 3e
       0.28195518 0.13367952 1.3651503 0.12723576
000070 f7 75 a9 be 71 d8 4b 3f f8 07 2d bd ba 72 b5 3e
       -0.33097813 0.7962714 -0.042243928 0.35439092
000080 ef 9f a1 c0 65 e7 8c bc 58 cf ca bd a7 73 80 3e
       -5.050773 -0.017200181 -0.09902829 0.25088236
000090 73 69 8d bf 69 f0 54 be 83 40 f9 bd e7 d4 80 3f
       -1.1047806 -0.20794834 -0.12170508 1.0064973
0000a0 f9 f9 8e 3e 6d dd 88 3c 0e 30 80 3c 2b 6b 54 3d
       0.2792509 0.016707147 0.015647914 0.051860016
0000b0 c6 7c 73 3e 32 6a 2f bd ae 76 6b be 43 9d 3f 3c
       0.23778066 -0.042825885 -0.22994491 0.011695209
0000c0 9a 9a 2c 3f 5a 87 b5 3e 9f 2d 53 3f 1e 3b 58 3f
       0.67423403 0.35454828 0.8249149 0.84465206
0000d0 ea af 1d be 71 c1 28 bf d9 f6 d4 3e d7 88 1b bf
       -0.15399137 -0.6592017 0.4159458 -0.60755676
0000e0 24 b4 9a 3d d9 17 0a 3d 79 30 96 be 59 50 9d bd
       0.0755389 0.03371415 -0.29333857 -0.07681341
0000f0 22 e0 28 3f 71 3d 5e 3e 84 42 e1 bd 73 31 6c bd
       0.65967 0.21703126 -0.10999015 -0.057664346
000100 33 dc da be 45 cc f7 bd 3c 1c cc be ca b9 68 bf
       -0.42746124 -0.12099508 -0.3986529 -0.9090849
000110 b9 3d 8d 3d 64 aa 0a be 3b b0 cf 3d af 3e d1 bc
       0.06896538 -0.13541561 0.10141035 -0.025542585
000120 e7 15 b4 3e e9 9a 4a 3e 01 fc 61 3e e6 21 8c 3d
       0.3517296 0.19785656 0.22068788 0.06842403
000130 8c 33 ea 3b 83 45 1f c0 bd fd 1a bd 6a e2 bb 3e
       0.007147258 -2.4886177 -0.03783964 0.36696178
000140 4c 93 ee 3d 9b 35 fc bf 29 bb 9f 3d c2 74 21 3e
       0.116491884 -1.9703859 0.0779937 0.15767196
000150 40 6e ad be 94 42 37 3f 4b df 9c bc 7d a3 a8 be
       -0.33873177 0.71585965 -0.019149443 -0.32937232
000160 18 70 ee be 73 25 5b be 45 53 d1 bc e1 35 01 be
       -0.46569896 -0.21401004 -0.025552401 -0.1261821
000170 53 c6 34 bd 58 0c 25 bf 97 49 56 be 18 b7 5c 3d
       -0.04413445 -0.6447196 -0.2092651 0.05388555
000180 f6 0e 81 bf 58 40 0d 3f 38 9d ba be 90 c9 5b 3e
       -1.0082691 0.55176306 -0.36448073 0.21463609
000190 e7 6b 6b 3e 5c 45 0e bf d0 1f 5c c0 27 e3 c0 3e
       0.2299038 -0.55574584 -3.4394417 0.37673303
0001a0 cd 4a 17 c0 1c de 91 bc bf df c9 3e 10 3a 94 bd
       -2.3639405 -0.017806105 0.39428517 -0.07237637
0001b0 ca fc 1c bf 3a ab 29 3e 55 03 4a be eb 7e 0b be
       -0.61323225 0.16569224 -0.19727834 -0.13622634
0001c0 48 bf a9 bd e7 af a1 be 2c 9e bb 3e 83 4f 00 3f
       -0.08288437 -0.31579515 0.36644113 0.50121325
0001d0 d2 ae 6e 3d 6a d9 7e 3d 14 8f 6d 3d ff e1 a1 be
       0.05827219 0.06221906 0.057997778 -0.31617734
0001e0 8e 3c be be a1 cc 86 3f 65 1a 96 bf f1 9c cd bc
       -0.37155575 1.0531198 -1.1726805 -0.02509925
0001f0 07 42 ef bf c9 76 60 bf 1b bf ce 3e 39 33 02 bf
       -1.8692025 -0.8768125 0.40380177 -0.5085941
000200 88 1e 53 c0 f0 bd e4 3d 5e b7 a8 3e 68 f7 62 be
       -3.2987385 0.1116904 0.32952398 -0.2216469
000210 80 23 e4 3e f4 28 21 be 73 d1 cf be a6 18 27 3d
       0.44558334 -0.15738279 -0.40589485 0.04079499
000220 99 24 40 3e df db 2b 3d 10 d6 de 3d 90 29 68 3e
       0.18763961 0.041957732 0.10880673 0.22672105
000230 fb 62 71 3c 66 8c 90 bf 80 cb 09 be b3 08 cf 3d
       0.014733071 -1.1292846 -0.13456535 0.10109081
000240 96 c2 11 bf 5d 22 95 3e de 4d c0 3f be c0 94 3d
       -0.5693754 0.2912778 1.5023763 0.07263325
000250 87 5f 95 3f b1 9f 46 3f 6a c9 a5 3f 0d 24 9e 3e
       1.1669778 0.7758742 1.2952092 0.3088688
000260 0a 48 f5 3d 38 05 e9 3b 4c 85 12 bd 4d 9b bb bd
       0.11976631 0.007111218 -0.035771653 -0.09160481
000270 be b6 52 3f 6d d3 c3 be fa e1 d6 3b c2 f8 5c 3d
       0.8231009 -0.38247243 0.0065577 0.05394817
000280 35 59 b5 be d9 79 db bf b0 fa c7 bf 79 6b 2f bd
       -0.35419622 -1.714656 -1.5623379 -0.042827103
000290 a0 e1 9a 3e cc bb fd 3c 6a d7 d0 bf e7 aa 94 be
       0.30250263 0.030973338 -1.6315739 -0.29036638
0002a0 1a 47 2c bb c9 30 79 3e 38 26 73 be 67 af 38 be
       -0.0026287497 0.24335016 -0.23745048 -0.1803566
0002b0 3d df 80 bd 15 41 a9 bf 70 49 7a 3d 36 54 24 3f
       -0.06292579 -1.3222986 0.06110519 0.64190996
0002c0 d5 9d 22 40 53 35 e6 bf 13 0b 5b 3a 13 59 a3 be
       2.5408833 -1.7985023 0.0008355837 -0.31903896
0002d0 6e 6b 5b be 2c a3 20 3f d5 ab a6 3f c0 93 5f 3d
       -0.214277 0.6274898 1.3021189 0.054584265
0002e0 42 f3 95 3f 6b 92 7c 3d 18 5d 5a 3d 3c 99 84 bf
       1.1714861 0.061663073 0.053311437 -1.0359263
0002f0 64 c4 7d be a9 67 e1 3e c4 5c 47 3f 61 1d fa 3d
       -0.24781948 0.440244 0.77875924 0.12212635
000300 77 b7 1e bf 0c 23 7c be b2 69 5a 3f 4f 8a ce be
       -0.61998695 -0.24622744 0.8531753 -0.40339896
000310 63 4f 92 bd a2 a3 83 3f 3d 6b b2 bf c2 d1 5e be
       -0.07144048 1.0284312 -1.3938977 -0.21759704
000320 87 7b 72 bf 0e 2c 8c 3d 65 3b 52 bf e5 a7 28 bd
       -0.9471974 0.0684434 -0.8212188 -0.04117574
000330 d3 2e 23 3f 71 fd d4 be af 88 ec bd 0e 7c e2 bd
       0.63743323 -0.4159961 -0.11549508 -0.11058818
000340 0e 58 b6 bd a0 89 61 bf 28 93 64 bf a7 6d 18 bf
       -0.08903514 -0.88100624 -0.8928704 -0.59542316
000350 c3 96 31 be b0 eb 10 bd ce 87 fe bc 08 fa 4a be
       -0.17342667 -0.03538102 -0.031070616 -0.19821942
000360 30 47 30 be 54 99 7e 3e fe a6 05 bf 35 4a 87 bd
       -0.17214656 0.24863178 -0.52207935 -0.06605951
000370 b8 78 18 bf b9 75 6d bf 3d 6d 54 bd e5 e6 45 be
       -0.595592 -0.92757756 -0.05186199 -0.1932636
000380 65 49 6b 40 b0 71 82 be 01 8a f0 bd 47 8b 41 be
       3.6763546 -0.25477362 -0.11745072 -0.18900786
000390 04 86 6d be a1 61 bc 3e 69 7a 9c 3e 44 98 ed 3e
       -0.23195654 0.36793235 0.30562142 0.46405232
0003a0 97 96 76 bf 7e fb 7e bd 1e e1 3d 3e 07 6c 9e bf
       -0.9632353 -0.06225156 0.18542907 -1.2376717
0003b0 45 f3 36 bd 8f 94 39 bf 5b 87 3a be fd 01 c0 bd
       -0.044665594 -0.7249231 -0.18215697 -0.09375379
0003c0 df 3f 8e 3f 52 be a5 be d0 0d e8 bd 98 47 eb be
       1.1113242 -0.32371765 -0.113307595 -0.4595306
0003d0 1a 17 33 3f de 77 30 3f 85 ae a5 3f 24 cf 1e be
       0.69957125 0.689329 1.2943884 -0.15508705
0003e0 d1 ad 7d 3e 3e 59 d3 3c dc 51 f5 3e 4d 2f 51 be
       0.24773337 0.02579939 0.47914016 -0.204282
0003f0 c3 bf ed 3e 2e a7 b1 bd 7b 1c b2 bd d9 b7 47 bd
       0.46435365 -0.08674465 -0.086968385 -0.048759315

B1.c2_d.bias f4 [24]
000000 ac 86 53 3d bb d0 ba bd 30 b7 58 be 2c 3c 1e bd
       0.051642105 -0.091218434 -0.2116363 -0.038631603
000010 7a ac 23 3e 5f 98 fe be b9 b7 07 3d 78 28 51 bd
       0.15983763 -0.49725625 0.033134196 -0.051063985
000020 cd bf 32 bf 9b 89 5f bc 42 34 28 3f 6b 45 fa bd
       -0.69823915 -0.013643648 0.6570474 -0.12220272
000030 89 49 09 bf 1a 5e 8a 3c a4 26 90 bb 91 cf 97 3e
       -0.5362783 0.016890574 -0.0043991376 0.29650548
000040 71 07 4d be 44 20 67 bf dd b8 44 be e8 db 57 be
       -0.2002237 -0.9028361 -0.19211145 -0.21079981
000050 c4 01 02 be 0e 2a a3 3e 99 8c 9c 3e 3f e9 9b bf
       -0.12695986 0.31868023 0.30576017 -1.2180556

B1.c2_r.pw.weight f4 [48, 48]
000000 9f 21 19 bf e1 2b 77 bd 12 fe 00 3d b9 27 82 3f
       -0.59816927 -0.06034458 0.0314923 1.0168372
000010 6f f6 80 bd 9a f2 d6 bf bd 12 13 40 d6 5f 30 3d
       -0.062970035 -1.6792786 2.2980187 0.043060146
000020 89 83 85 bd 6b 83 2a 3d b1 22 b0 3d c0 69 68 3d
       -0.06519229 0.041629236 0.08600367 0.056741476
000030 12 2e 2d bf 2d b7 b8 bf 2a 5f 17 bf f6 eb 28 3e
       -0.6764842 -1.4430901 -0.59129584 0.16496262
000040 47 ff 9f 3d 17 38 04 40 73 49 cf 3d d1 9b 1f 40
       0.07812362 2.0659235 0.10121431 2.4938853
000050 a0 b1 d1 3d d5 c8 ae ba ec c1 9b bd 33 26 3c be
       0.102389574 -0.0013334999 -0.07605347 -0.18373947
000060 41 6f 1c bf f7 2a a9 be 33 4f 42 bf 89 2b d8 3c
       -0.6110726 -0.33040592 -0.759021 0.026387947
000070 2a b1 60 3d 2a 5f 23 c0 d1 a9 f9 3d 0a 8b 94 bd
       0.054856457 -2.5526834 0.12190593 -0.07253082
000080 a0 75 d9 3f 2c b6 db be e2 ee 47 3e b7 59 94 3e
       1.6989021 -0.42912424 0.1952472 0.28974697
000090 d4 d0 d1 3f 52 1b e2 bf d5 61 a7 3e 45 86 0a bf
       1.6391854 -1.7664587 0.32691827 -0.5411113
0000a0 f0 23 cf bd 24 48 4b bb 7d bd 6f 3d 67 84 0b bf
       -0.101142764 -0.003101834 0.05853032 -0.54498905
0000b0 2d 8e 5e be f7 76 87 3e 70 7d e8 bf ad 8b e2 3c
       -0.21733923 0.2645795 -1.816328 0.027654493
0000c0 b7 be 30 3f 02 97 01 bf d2 a4 d9 3f 9a b7 2f 3f
       0.6904101 -0.50621045 1.7003424 0.6863953
0000d0 2a b3 1e bf 38 6c 97 3f d2 2d 75 bf 67 4f 98 bd
       -0.6199213 1.1829901 -0.9577304 -0.0743702
0000e0 3e c4 1c 3f 83 e9 af 3b 96 0c fd bd 70 fb 5e bf
       0.6123694 0.005368413 -0.12355916 -0.87102413
0000f0 4d db ba bd 01 18 cb be d4 5a 13 3e 07 6d f4 3c
       -0.091238596 -0.3966675 0.14390117 0.029837145
000100 b4 46 db be 41 80 01 40 97 57 35 3f ba e0 f3 bf
       -0.4282738 2.023453 0.70836776 -1.9052956
000110 5b e8 bd bd 34 46 76 bf bf 6a cc 3d 15 ff 97 bd
       -0.09272834 -0.9620087 0.09981298 -0.074217
000120 1f 94 3a 3e 2f e3 b6 3d 31 f4 53 3f 37 f0 01 3c
       0.18220566 0.089300506 0.8279448 0.007930807
000130 7e 09 48 3f c9 db 64 c0 00 7c 2c 3d 16 8b bc 3e
       0.78139484 -3.5759146 0.042110443 0.36824864
000140 83 b1 ee bf 26 07 bc 3f f2 d3 c4 3c c9 37 87 3e
       -1.8647922 1.4689682 0.024026845 0.26409748
000150 89 51 60 be 44 09 a0 be 95 f0 1f 40 3b de d8 be
       -0.21906103 -0.3125707 2.499059 -0.42357048
000160 d2 86 e3 3f 48 ba bf bd a0 2f ac bd 18 24 62 bf
       1.7775519 -0.09361702 -0.08407521 -0.88336325
000170 4b 8e 55 3d 88 ae 96 bf c5 03 b3 bd 12 88 bb bd
       0.052137654 -1.1772013 -0.08740953 -0.09156813
000180 56 a1 85 3f 00 5a 24 3e 7f fc 8b bf 38 56 bd 3e
       1.0439861 0.16049957 -1.0936431 0.36979842
000190 e6 4f 03 3f 61 d0 7a 3e 64 07 e4 bf f5 24 bf bd
       0.5129379 0.24493553 -1.7814755 -0.09333221
0001a0 fd ae 08 3f 73 7b 7a 3b d1 bd 79 40 c5 d0 dc b9
       0.5339201 0.0038220554 3.9022105 -0.00042117215
0001b0 6b fc a7 3f 4d 17 55 3f 6d f4 4a 3c ee e8 11 3c
       1.3123907 0.8323868 0.012387377 0.008905632
0001c0 ca ec 02 bd 6d 5e b3 be 16 b8 d4 3f f4 b4 5b 3f
       -0.0319641 -0.3503298 1.6618679 0.8582299
0001d0 48 91 35 bd f4 e1 17 ba 7d f8 0f bd bd f3 a7 3e
       -0.044328004 -0.00057938625 -0.035149086 0.32803145
0001e0 eb 67 09 be af e9 72 3e 44 b2 b1 3d c7 2a ae 3b
       -0.13418548 0.23721956 0.086765796 0.005315158
0001f0 3a b6 cf 3e df 26 90 be 7d b1 8f bf 68 d8 b3 be
       0.40568715 -0.28154656 -1.122604 -0.35126042
000200 d3 0b 8e 3f 22 6b 13 bb 22 ce 17 3e 20 5a 76 bc
       1.1097358 -0.0022494276 0.14824727 -0.015036136
000210 3f 6e 99 3e 89 4b 06 3e 55 e6 cd bd 7b af 9e 3d
       0.29966924 0.13114752 -0.10053698 0.07748314
000220 75 37 55 3c 6e 5f 44 bc f4 b2 8b bd 20 26 09 3e
       0.01301371 -0.011985643 -0.06821242 0.1339345
000230 3c b2 b5 3e 2c 20 c0 bd 2d 6a a4 be 6a 3b f1 bc
       0.35487545 -0.09381136 -0.32112256 -0.029447276
000240 01 ac c9 be 99 6c 5b be 65 2c a0 3e 44 18 95 3e
       -0.3938904 -0.21428145 0.3128387 0.29120076
000250 65 c5 90 3f 7e ad 83 bf 98 6c d8 40 39 af cb 3c
       1.131024 -1.0287321 6.763256 0.024863826
000260 b2 f2 6c bf e1 01 fc 3d bf 4c 4b 3f 07 22 70 3d
       -0.92557824 0.12305046 0.7941398 0.0586262
000270 bf c8 b8 3e c5 f1 a1 3e a8 09 e4 be 34 9f b4 3e
       0.36090657 0.31629768 -0.44538617 0.35277712
000280 ad 01 6e 3d 85 ca 11 bf e0 50 21 3f a9 af 9d be
       0.058107067 -0.56949645 0.6301403 -0.3079808
000290 91 60 7f 3c c2 c0 53 bc c0 50 dc 3e 80 89 8d 3f
       0.015586988 -0.012924375 0.43030357 1.1057587
0002a0 28 ff 2b 3e 84 4d dd be f7 2a 20 bf 58 95 28 3d
       0.16796553 -0.43223202 -0.6256556 0.04115805
0002b0 9b 4f 60 be 90 a6 b6 3d 6d 24 b7 3f f8 4b 2d 3c
       -0.21905367 0.08918488 1.4307991 0.010577194
0002c0 4d 4f 6a c0 a1 09 7a bd af f1 97 bf 7e 45 84 3d
       -3.6610901 -0.06104434 -1.1870631 0.06458567
0002d0 01 04 f4 3e 86 c4 c3 be 0e 0d 8e bd 7c 24 ca 3d
       0.47659305 -0.38235873 -0.06936084 0.0987024
0002e0 e5 de c1 3e 7b 0f 91 3d d6 81 74 be c8 82 ce bd
       0.37865368 0.07083031 -0.23877653 -0.10083538
0002f0 bd 7f 91 bf a1 25 4c be 43 15 c4 3d 03 55 9e 3c
       -1.1367108 -0.1993623 0.09574368 0.019327646
000300 7c 52 b6 3f 94 7a d0 3d af e3 8d 3f 37 d0 8a 3e
       1.4243922 0.1017963 1.1085109 0.2711198
000310 1f 9d 5e bd 75 43 ea be f6 a3 9d c0 89 4a b6 bd
       -0.05434906 -0.4575459 -4.926265 -0.08900935
000320 5f 3e bd be 0a 75 ff bd 53 36 97 bf 31 33 e8 bc
       -0.36961648 -0.12473495 -1.1813453 -0.028344722
000330 d3 75 a5 bf 05 38 a1 bf 28 8e 7f 3f 65 87 81 be
       -1.2926582 -1.2595221 0.9982629 -0.2529861
000340 dc 06 88 bd 43 8a 7c bf 0e 35 28 bf 82 36 b2 3e
       -0.06641933 -0.9864847 -0.65705955 0.3480721
000350 48 7d cb bb ac 5b 05 bd 3a 36 93 bd 7a 59 ae bf
       -0.006210003 -0.03255813 -0.07188077 -1.3621056
000360 19 16 12 3d fb 03 81 3f 77 84 5f 3f 11 0f 2a bd
       0.035665605 1.007934 0.873115 -0.041518275
000370 60 46 c8 3e 10 83 96 3d 2e 64 20 bf ad cc 11 3e
       0.39116192 0.07349217 -0.6265286 0.14238234
000380 c1 21 fc 3d 3b b8 06 be 87 0f 48 3f 02 e6 0d be
       0.123111255 -0.13156216 0.7814869 -0.13857272
000390 0a 0b c2 bf 05 4f d8 3d 5b f2 19 3f 43 98 e2 3e
       -1.5159619 0.10561947 0.6013543 0.4425679
0003a0 7a b3 47 3e ec 7d 72 3d c9 cf c3 3e d5 2d 9a be
       0.19502059 0.05920212 0.38244465 -0.30113092
0003b0 0b 8a fb 3e 59 6a 75 3e 32 ab bc 3e da 56 4d bc
       0.49128756 0.2396635 0.36849362 -0.012532914
0003c0 3b 92 cb be 7a ef 10 3f f7 4f 39 be b3 21 e0 3f
       -0.39760002 0.5661541 -0.1809691 1.7510284
0003d0 aa aa ba 40 aa b1 80 bf 27 7d cf 3e 8e 8c c6 3e
       5.833333 -1.0054219 0.4052517 0.3877911
0003e0 97 6c 9a bf d5 8d c4 3e b2 6f 1f be 05 26 c1 3d
       -1.2064389 0.3838946 -0.15569952 0.0943108
0003f0 6d 76 8c bf de b4 3c 3f 32 5f 3f bf 7d 15 de 3e
       -1.0973641 0.7371348 -0.7475463 0.4337577

B1.c2_r.pw.bias f4 [48]
000000 4b 96 6c 3e 10 a8 0b be 6f b7 16 be e8 25 aa 3f
       0.23104207 -0.1363833 -0.14718412 1.3292818
000010 28 66 3d bf 4a 63 27 3e af d3 c9 bd aa d2 b7 bf
       -0.73984003 0.1634647 -0.098548286 -1.4361165
000020 ab 06 4a 3f 22 3a 24 bf e6 36 cd be 9a 1c d3 be
       0.78916425 -0.64151204 -0.40080947 -0.4123276
000030 d3 55 3f bf a7 94 82 3d 65 e8 19 bf 0f 5b ca 3c
       -0.7474033 0.063760094 -0.6012023 0.024701623
000040 fa 86 1f 3f 1c c7 69 3e b3 8a 3b bf de cb 1c 3f
       0.6231533 0.2282986 -0.73258513 0.61248577
000050 9c ee 48 be 5a 02 7c be 44 fb 08 40 00 1b 61 be
       -0.19622272 -0.24610272 2.140336 -0.21982956
000060 a7 c2 32 bf b5 37 23 bf fb f3 c6 be c4 af 4f 3e
       -0.69828266 -0.6375688 -0.38858017 0.20281893
000070 1e 8a 87 bd 3a a8 76 3f f3 13 71 3f 3c 7d a8 be
       -0.06618141 0.96350443 0.94171065 -0.32908046
000080 52 d9 62 bf d6 e7 8d 3e f5 bf b8 3e 22 e2 0b 3c
       -0.88612854 0.2771594 0.36083952 0.008537801
000090 df 48 55 bf 0f 36 79 be e1 6f 96 3d 2a c5 cc 3e
       -0.8331432 -0.24337028 0.07345558 0.39994174
0000a0 8d fe 15 bf 48 ca 1e c0 ae 78 d5 3d 56 ed c0 bf
       -0.5859154 -2.4810963 0.104234084 -1.5072429
0000b0 9f 3e 42 bf 7f 4e 9d bf 35 d5 27 bf dd 15 d4 be
       -0.758768 -1.228958 -0.65559703 -0.4142293

B1.c2_r.dw.bias f4 [48]
000000 1a 8d 4b 3e 4d 43 3d be 6a 04 d8 be 4e 87 47 3b
       0.19878045 -0.18482704 -0.42190868 0.0030445638
000010 b4 d0 58 3f 18 9f 2d 3f 7b 2f 47 bf 04 b4 e1 bb
       0.84693456 0.6782088 -0.77806824 -0.0068879146
000020 85 f6 9a be 24 3a 96 3e cc 59 53 b9 1b 64 15 3f
       -0.30266204 0.29341233 -0.0002015598 0.58355874
000030 f4 51 c3 bd dc bc 5c 3e 9e 47 bf 3e c9 4b b0 3e
       -0.09537116 0.21556419 0.37359327 0.3443282
000040 42 29 72 bf b9 0f b8 3e 7a ad 0d 3e d6 9f 8b be
       -0.94594204 0.35949495 0.13835707 -0.27270383
000050 bd ef 19 3f 81 5a d1 be 03 66 2e 3f cd f8 78 3e
       0.60131437 -0.40889362 0.6812441 0.2431366
000060 1e af 36 be 08 ce 4b bd d8 8d 11 3f a9 f9 09 3f
       -0.1784024 -0.049757034 0.5685706 0.53896576
000070 f9 f0 08 3f 90 97 d5 3e 3f 90 2a 3f c1 e5 01 be
       0.53492695 0.41717196 0.6662635 -0.126853
000080 f6 0e 8e be 34 fa 77 3e e1 bc 08 bf c5 c4 ca be
       -0.2774579 0.24216539 -0.53413206 -0.39603248
000090 2d d3 83 be 6f 0a 7b be 20 e3 46 bd 17 c8 07 3f
       -0.25747052 -0.24515699 -0.048556447 0.5303969
0000a0 9c d7 cf be a3 9e 94 bd 9a 39 4e 3e 50 e7 1c be
       -0.40594184 -0.0725682 0.20139161 -0.15322614
0000b0 1e 58 74 3e a2 ca 59 bd c0 50 f5 3d af 69 d2 3d
       0.23861739 -0.05317176 0.119782925 0.10274064
